Assistant/mlp_best_model.pth (torch, 352910 bytes, 20 tensors)

model.0.weight f4 [256, 168]
000000 05 ed 27 c0 7e 67 81 bf 12 5c 10 3e b6 96 99 bd
       -2.6238415 -1.0109708 0.14097622 -0.07499449
000010 19 02 12 bf 8b e9 b7 be 43 83 9d 3e f5 85 12 be
       -0.5703445 -0.35920367 0.30764207 -0.14308913
000020 d7 b2 1d be de 8b b0 be 70 80 01 bf 30 f9 12 be
       -0.15400253 -0.3448171 -0.50586605 -0.1435287
000030 a4 6f 2b bf 3e 08 86 3e 11 77 c3 bf 5c cd 08 bf
       -0.66967225 0.26178163 -1.5270711 -0.53438354
000040 3c 9a ba 3d d7 dd 9f be 60 98 5a bf e0 d5 02 3f
       0.09111449 -0.31223938 -0.85388756 0.511076
000050 a0 14 b8 3e 94 8d b2 3b 5e ac 15 3e 36 cc a8 3f
       0.35953236 0.0054490063 0.14616534 1.318732
000060 63 db 10 c0 56 9f a1 bf 69 88 ab bc 7e 9f 46 be
       -2.2633903 -1.262675 -0.020939069 -0.19396779
000070 ce 92 52 bf 7b d2 5c 3e 63 29 be 3d b9 3b 0d 3e
       -0.82255256 0.21564667 0.09285238 0.13792314
000080 d5 80 48 3e 1a 61 ea 3f c2 36 cb be 1d 10 22 40
       0.19580396 1.8310883 -0.39690214 2.5322335
000090 07 14 a0 be 45 a1 3a 3d 2a 1e bc 3e 72 db 10 bf
       -0.3126528 0.045563955 0.36741763 -0.56584847
0000a0 94 53 bc 3e 06 a2 93 3e fc 3f e7 3d 9a 6f ab 3c
       0.36782515 0.28834552 0.11291501 0.02092724
0000b0 97 66 8d be fb bb a0 3f 59 8d df 3f be 4b 83 bf
       -0.27617332 1.2557367 1.7465011 -1.025749
0000c0 b1 c0 1f 3e 0a 75 5c be ac 77 54 bc 62 e7 84 3e
       0.1560085 -0.21529022 -0.012967985 0.2595778
0000d0 ba 09 8b 3f db d2 aa 3e 68 73 4b 3e 90 5d 9b 3f
       1.0862343 0.33363995 0.19868243 1.2137928
0000e0 90 f6 8d be ff 98 21 bf f3 4d f4 3e 26 71 a7 be
       -0.27727175 -0.6312408 0.4771572 -0.32703513
0000f0 98 77 64 bf 46 03 c6 3d b3 4a 99 3e 7d 21 96 3f
       -0.89244986 0.09668593 0.29939803 1.172897
000100 87 a3 54 be 5e 63 02 bf 59 fa 87 be 47 a3 28 bf
       -0.20765506 -0.5093287 -0.26558188 -0.6587414
000110 cc f0 0f 3f 41 74 23 3f 8f 04 5e be 3e e7 84 bf
       0.562268 0.63849264 -0.21681426 -1.038307
000120 6e 76 75 3d e8 be 30 bf 38 99 91 3f 34 ff e9 be
       0.059927396 -0.690413 1.1374884 -0.45702517
000130 34 ba 8d be a6 bd 12 bf f2 de 05 c0 dc f9 14 be
       -0.27681124 -0.5732063 -2.0917325 -0.14548439
000140 22 7b e8 bf 5a 48 e5 bd 9e 53 82 bf 84 d2 82 be
       -1.8162577 -0.111954406 -1.0181768 -0.25551236
000150 c7 f1 44 3e f7 8c cc 3e 7f 9e 61 be 02 64 93 3e
       0.19232856 0.39951298 -0.22033118 0.28787237
000160 01 e4 5d bf 54 db a8 bd 37 20 28 bf 9e f0 1e 3d
       -0.8667603 -0.082449585 -0.65674156 0.03880369
000170 82 20 21 3f ad 76 53 3f 62 74 66 c0 74 68 48 3e
       0.6294023 0.8260296 -3.6008534 0.19571096
000180 67 1f 58 bf d2 84 6d be a1 f4 67 ba 15 42 2f bf
       -0.84422916 -0.23195198 -0.0008848403 -0.6846021
000190 38 7a 11 3e 92 85 97 bf fb 7f 0a bf ef be 45 3e
       0.14206779 -1.1837637 -0.5410153 0.19311117
0001a0 40 f1 23 be ae 9c 2c 3f ad 44 56 3f ca 6a 22 3e
       -0.16009998 0.67426574 0.8369854 0.1586105
0001b0 77 89 72 3e 74 88 c0 3e af 83 96 c0 85 9c 0b be
       0.23685251 0.37604105 -4.7035747 -0.13633926
0001c0 20 41 c3 3e 11 fd 6b be 99 86 12 3f 42 a7 88 3f
       0.38135624 -0.23045756 0.5723663 1.0676043
0001d0 67 dc 8e 3f 44 c8 3b 3f 42 6b 71 3e 1a 6e 0b 3d
       1.1161011 0.73352456 0.23576072 0.034040548
0001e0 09 fd 30 bb 7d cc 03 bf 23 9b 55 3f a2 7b a4 3e
       -0.002700629 -0.514839 0.83439845 0.32125574
0001f0 a5 a9 3d bf e9 c5 33 3f 64 22 8b 3f 51 03 28 40
       -0.7408698 0.7022386 1.086987 2.6252024
000200 62 21 cc 3e 59 76 f2 bf 5b 04 b9 3e d4 85 07 bf
       0.3986922 -1.8942367 0.36136135 -0.5293858
000210 fc 71 3c 3f 30 e5 82 3e 06 b2 33 bf 87 da 13 be
       0.73611426 0.2556548 -0.7019352 -0.1443883
000220 9a 18 26 40 c4 de 4b bd d7 84 cb be 03 6f 22 be
       2.5952516 -0.049772993 -0.39749786 -0.1586266
000230 97 22 08 bf 76 2c d2 3e 13 58 90 be 1f 1d e2 3d
       -0.5317778 0.41049546 -0.28192195 0.11040711
000240 60 fc 0a 3d 11 1f b5 3e 2c f4 93 bd 0e 53 c9 3e
       0.03393209 0.35375264 -0.072243065 0.39321178
000250 4b f4 39 bf cb e2 88 bf 7a f5 cb 3e ec a9 be be
       -0.72638386 -1.0694212 0.3983572 -0.37239015
000260 46 77 aa 3e ba 85 76 be 72 92 37 bf 00 fc 69 3d
       0.33294123 -0.2407445 -0.7170783 0.05712509
000270 99 34 21 3e 35 b8 2f 3f 36 0e 3f bf a3 ff 4f 3f
       0.1574272 0.6864045 -0.7463106 0.81249446
000280 ab 5b aa 3d fa 28 ae 3e a0 08 83 3e fb 9f d9 3f
       0.083182655 0.34015638 0.25592518 1.7001947
000290 62 47 7b bf a2 c7 9d bd 25 fa d2 be be 8e 3b bf
       -0.98155797 -0.077040926 -0.4120647 -0.7326468
0002a0 b6 05 a8 3f f6 43 42 c0 87 a7 de c0 dc 01 7a 3d
       1.3126743 -3.035398 -6.95795 0.06103693
0002b0 ce 9c 62 3f e0 b9 a6 bd a8 b2 cd 3d f5 a3 03 40
       0.88520515 -0.081409216 0.100438416 2.0568821
0002c0 bf 63 37 3e 99 cf de 3e 25 43 ee 3d bd b8 b6 be
       0.17909144 0.4351776 0.116339006 -0.3568782
0002d0 b2 0c f1 bd a3 aa 63 3e 87 07 f4 bf 2c a8 37 40
       -0.117699996 0.22233061 -1.9064797 2.8696394
0002e0 00 02 5c 3d ce d8 c0 be ab ff d4 3e 48 f7 a9 3e
       0.053712845 -0.3766541 0.4160131 0.33196473
0002f0 4e c8 85 bf 97 e3 96 bd 60 4c ea bb ea 1d 30 3f
       -1.0451753 -0.07367628 -0.007150218 0.68795645
000300 cc 91 52 c0 64 7f e3 3d d2 b2 24 be 81 62 27 be
       -3.2901487 0.11108282 -0.1608384 -0.1634617
000310 d9 66 3f be 0e eb 23 3e 8f 3b 04 3f 7f 59 00 3c
       -0.18691577 0.16007635 0.5165338 0.0078338375
000320 c9 28 08 be 65 a8 2a 3f 1e 87 62 bf f8 bf 16 c0
       -0.13296808 0.666632 -0.8848742 -2.3554668
000330 4f d8 09 bf 3c 47 c8 bd 73 11 74 bd 60 6b 87 be
       -0.53845686 -0.09779212 -0.059586953 -0.26449108
000340 7a b0 45 be f4 a9 8b 3e 2c a9 58 3e 05 4d b7 3e
       -0.19305602 0.272781 0.21158284 0.3580095
000350 3f 75 51 bf 9e 5e 78 be 6a aa 45 3f da 56 bf 3f
       -0.8181953 -0.24254844 0.77213156 1.494838
000360 f4 78 16 3e 55 7f a5 3e c6 69 27 3e 7b b2 93 3e
       0.14694577 0.3232371 0.16348943 0.28847107
000370 6d 31 0e bf ee a3 c5 be 60 43 70 be 9e 98 59 be
       -0.5554417 -0.3860163 -0.23463202 -0.21249625
000380 3f 48 09 bf e2 b2 0b bf 9e 83 ad 3e 9d db 3a 3c
       -0.53625864 -0.5456983 0.33889478 0.011404899
000390 9d c0 eb 3c ef 14 cc 3e 1a ee 04 3f 19 6d 00 bd
       0.028778369 0.3985972 0.51925814 -0.031354044
0003a0 bf fb 8d 3e 30 2d 52 3e cc e7 e3 be 60 3a bb 3f
       0.2773113 0.2052505 -0.44512784 1.462719
0003b0 8e e4 41 be 4e aa af 3c fd ad 12 bd f9 5e 2f be
       -0.18934843 0.021443512 -0.03581046 -0.17126073
0003c0 91 e8 b1 39 e0 cd 0d 3e 12 c2 23 3f ef 5a 88 bf
       0.00033933346 0.13848066 0.63968 -1.0652751
0003d0 f0 43 e8 3d 88 91 cf 3f cc 48 bc 3e 8f cc 19 be
       0.11341083 1.6216288 0.3677429 -0.15019439
0003e0 4e cc a6 3e 02 11 b4 bd 88 c8 21 3e e1 2c f2 be
       0.32577747 -0.087923065 0.15799153 -0.47299865
0003f0 1b d3 0a 3e bd 0d a3 3d 26 97 30 bd 76 85 f7 bc
       0.13557093 0.07961605 -0.043112896 -0.030215006

model.0.bias f4 [256]
000000 53 34 91 bd 79 b3 11 3d 2e 0e 19 3d 67 0d 8b bd
       -0.07090058 0.03557155 0.03736704 -0.06789666
000010 13 f7 db 3b be cc 8e bd 5c 14 a8 3c 30 78 a8 3d
       0.006712803 -0.06972645 0.02051752 0.08226049
000020 92 ce 4b 3d df 43 92 3d 02 80 35 3d 31 d9 28 3d
       0.049757548 0.07141852 0.04431153 0.041222755
000030 4a b8 e7 3b 4c 1f 69 3d 09 15 94 3c 4d 3b 02 3d
       0.0070715295 0.056914613 0.018076437 0.031794835
000040 ce 13 16 3d 98 49 29 3b b6 1a 34 3d 52 a0 1c 3d
       0.03663998 0.0025831219 0.043970786 0.03823883
000050 61 09 f3 3c 60 d8 62 bd 46 27 20 3d 9a 15 22 3d
       0.029667558 -0.055382133 0.039099954 0.039571382
000060 e4 30 08 3d dc 70 b3 3d fc 5d 5e 3d e9 ae 04 3d
       0.03324975 0.087617606 0.05428885 0.03239337
000070 bd d9 b0 3b 90 70 13 bd 45 fd a0 bc db 62 0f 3d
       0.00539705 -0.03599602 -0.019652018 0.035006385
000080 93 aa 45 bd 6f 92 19 3d 8f d9 07 3d 22 b1 d9 3c
       -0.048258375 0.037493166 0.033166464 0.026573721
000090 fc 8b 11 3d 9c 62 88 bd 6e 24 92 3d 46 bf 9c 3c
       0.03553389 -0.06659433 0.07135855 0.019134175
0000a0 ae 22 10 bd a1 b4 09 bd b2 38 6c 3d 4a 3c d8 3c
       -0.035189323 -0.033619527 0.057671256 0.026395936
0000b0 c3 10 23 3d 0e 6b ad 3c 8f 50 7b 3d aa af a3 3b
       0.039810907 0.021169212 0.061356124 0.004995306
0000c0 19 bf 05 bd cb af f5 3c 6b fa 8a 3d e6 dc 1b bd
       -0.032652948 0.029991051 0.06786045 -0.038052462
0000d0 2b 0e 51 bd 63 5a 47 bc 48 1b 0a 3d 25 5a 30 3d
       -0.051038902 -0.012167546 0.033717424 0.04305472
0000e0 38 01 8b 3d 02 13 23 3b 9a 7d fe bc e1 8f 43 bd
       0.06787342 0.0024883156 -0.03106575 -0.047744635
0000f0 13 8a 17 bc 4e db d0 3c 77 d1 c5 bc 67 6d e7 3c
       -0.009249228 0.025495198 -0.024147732 0.02825041
000100 c1 de c0 3c 04 3e 3a 3d af b9 ef bc aa d1 81 3d
       0.023543717 0.0454693 -0.029263346 0.06338818
000110 82 ee 63 bc 1b 13 b6 3c e0 31 bb bd 6f db 56 3d
       -0.013911845 0.022225907 -0.09140372 0.052455362
000120 f0 ef 7c 3d bb 42 55 3d 06 04 3a 3d bf f9 04 bd
       0.06175226 0.052065592 0.045413993 -0.03246474
000130 f3 00 6e 3d 5d 03 00 bb e2 56 ee bc 0a 75 3f bd
       0.058106374 -0.0019533255 -0.029094163 -0.046742477
000140 00 c0 27 bd 60 2e 22 3c e8 cc 58 bd 79 86 83 bc
       -0.04095459 0.009898752 -0.05292979 -0.016055332
000150 2a ce 5e bc 5b f8 1b bb e8 03 6d bc 7c 03 41 3d
       -0.013598958 -0.0023799154 -0.014466263 0.047122464
000160 e8 b5 e7 3c 4d 33 c3 3b 65 f0 8f 3c 60 22 de bc
       0.028284982 0.0059570433 0.017570684 -0.027116
000170 99 2d 18 3d e7 75 62 bd aa 2e bf 3c e1 df 1a bc
       0.03715286 -0.05528822 0.02333768 -0.009452791
000180 a3 09 7a bd 3b f7 29 bd 87 1f 75 bd e5 9e 63 bd
       -0.061044347 -0.041495543 -0.05984452 -0.055571456
000190 f2 2a 85 bd f3 ee b3 3d a5 77 eb bc 29 17 a9 3c
       -0.06502332 0.0878581 -0.028743574 0.020640926
0001a0 16 e5 69 bc 1f 54 e4 bc 17 77 42 3d 38 16 97 bd
       -0.01427581 -0.027872143 0.047476854 -0.07377285
0001b0 06 51 61 bd 73 7f 1d bc 0c bf 0d b9 32 09 53 3d
       -0.05500891 -0.009612906 -0.00013517978 0.05152244
0001c0 ac e9 15 bd 8a e5 73 3d d5 fc 56 bc 07 18 6f bd
       -0.0365998 0.059545077 -0.013121803 -0.058372524
0001d0 4f c6 21 bd ca 1f 39 bd 81 dc 91 3d e0 40 50 3c
       -0.039495762 -0.045196332 0.07122136 0.01271078
0001e0 fb 0b 86 3d c1 59 8b bd 4b d7 19 3d 8f 2f 06 bd
       0.06545254 -0.068042286 0.037558835 -0.0327602
0001f0 c7 c8 32 bd f2 f5 e1 bc 38 27 b5 bc ce 39 9c bc
       -0.043648507 -0.027583096 -0.022113428 -0.019070532
000200 ac df d9 3c 21 13 9a bd 42 d0 0f 3c 14 81 28 3b
       0.026595913 -0.0752318 0.00877768 0.0025711702
000210 23 5f 8f bd ff 54 20 bc b9 31 81 3c 30 59 a5 3d
       -0.07000568 -0.00978589 0.01577078 0.08073652
000220 95 f3 a4 3c c1 a2 06 bd 05 04 ad 3b 6a 42 dd bc
       0.02013568 -0.032870058 0.00528002 -0.027009208
000230 70 8b 20 3d 22 df 79 bc 21 8b 12 bd 15 00 a6 3d
       0.039195478 -0.015250953 -0.035777215 0.081054844
000240 d9 a3 a7 bd 51 c2 2e bd 0d e5 dc bc 6d eb 52 bd
       -0.08185548 -0.042665783 -0.026964689 -0.05149405
000250 96 b6 2e bc d8 b5 3a 3a 91 fe 62 3d ab db 8d 3d
       -0.010663649 0.0007122434 0.055418555 0.06926664
000260 70 5f d3 3a cf 50 92 bd 76 4d 3b bd 61 dd d7 bc
       0.0016126465 -0.07144319 -0.04572817 -0.026350679
000270 ad f7 12 bb 85 ae 71 bd 0d c8 1b 3d 61 f7 d0 bc
       -0.0022425458 -0.059004325 0.03803258 -0.025508584
000280 9d 87 2a bd 1c b4 83 3d 38 4e 80 3d 3d d0 a4 3c
       -0.041633237 0.064308375 0.06264919 0.020118827
000290 1c fc 92 bb 19 c1 55 3d c8 77 0b bd 90 5b eb 3c
       -0.00448562 0.052186105 -0.03404978 0.028730184
0002a0 e4 98 62 bd e8 5d a2 bd 17 97 24 3d bf 07 84 bd
       -0.05532159 -0.079280674 0.040183153 -0.0644679
0002b0 e2 0c 09 3d 6e ec 9b 3a 2e 0f 9c bd d4 b7 8b bc
       0.03345955 0.0011896023 -0.07620083 -0.01705543
0002c0 94 4a 1b 3c cb a4 bc 3c 57 e6 6d ba 31 c8 10 3d
       0.00947823 0.023027798 -0.0009075156 0.035347167
0002d0 7b d1 6e 3d 90 00 35 3d 89 76 81 bd 34 a3 82 3a
       0.058305245 0.04418999 -0.06321437 0.0009966851
0002e0 73 5a e0 bc 5d c8 7e bb 4a a9 56 3d 37 9d 15 bd
       -0.02738688 -0.003887675 0.05240754 -0.036526885
0002f0 ab cf 7a bd ea 2d d9 bc 36 0f 2a bc 1b cd d0 bc
       -0.061233204 -0.026511151 -0.010379603 -0.025488427
000300 5b 11 82 3c ec 51 9e bc 4a 55 64 3c 09 fc a6 bd
       0.015877416 -0.019326173 0.01393635 -0.08153541
000310 eb 6b c1 3c a1 ab 2b bc 32 78 75 3c ed ce 20 bd
       0.02361103 -0.010477931 0.01498227 -0.03925984
000320 39 74 91 3d 52 7c a0 3c 2d 8b 0a 3d f4 f7 06 bd
       0.07102246 0.01959053 0.033824135 -0.03295131
000330 1d 32 9c 3b d2 f5 3f bd 3e a9 88 3d dd c6 6e bc
       0.004766716 -0.046865292 0.066729054 -0.01457378
000340 a4 7a ca 3c ad fd 57 bd 2a fc bf bb 33 f3 94 bb
       0.024716683 -0.05273216 -0.0058589177 -0.004545593
000350 05 39 be 3c 58 ce 49 3b 14 46 51 3d 21 d1 ac bc
       0.023220548 0.0030793156 0.051092222 -0.021095814
000360 1d 5e 6c 3b af ac 95 b9 f1 ed 16 bd 4d 9a 5f bd
       0.0036066838 -0.00028548154 -0.036848012 -0.054590512
000370 39 57 74 bc a1 64 2a 3d 3d 13 9f 3d f4 27 70 bd
       -0.014913374 0.041599873 0.07767341 -0.058631852
000380 c8 ec d1 3c c1 e2 2c bd 98 0e 0f bd 0f e8 4a 3d
       0.025625601 -0.042208437 -0.034926027 0.049537715
000390 c5 fa 6b bd 2a 5e a0 3d 33 16 e6 bc d6 43 9c bd
       -0.0576122 0.0783046 -0.028086757 -0.07630126
0003a0 3e e0 5e 3d 45 f0 3e 3c ac 5b 5d 3d 10 04 fc 3b
       0.054413073 0.011653964 0.054042503 0.007690914
0003b0 09 fc 85 bd 05 ec c0 3c 65 22 3b bd 72 8a 1b 3d
       -0.065422125 0.023550043 -0.045687098 0.03797383
0003c0 c3 b2 9d 3d 1c fa 8a bc ee 49 67 3d ba eb 75 bc
       0.07700112 -0.016964965 0.05646699 -0.015009815
0003d0 94 fe 35 3c 00 5e 61 3d 05 af 68 bd 5f 29 a4 bd
       0.011108059 0.055021286 -0.056807537 -0.080157034
0003e0 4c f6 a4 3d 80 c1 30 bd 2a 3c ac bc 5d 11 0b 3d
       0.0805479 -0.043153286 -0.021024782 0.033952106
0003f0 a5 56 e1 bc fe 90 35 3a b1 6a 79 3d 26 6a 26 3d
       -0.027507136 0.00069262076 0.060892764 0.040628575

model.1.weight f4 [256]
000000 c4 cc 8a 3f c4 7c 8c 3f 9b 3f 73 3f 74 f0 b0 3f
       1.084374 1.0975575 0.9501893 1.382338
000010 06 79 57 3f 1b 5c 92 3f 04 0d 8e 3f 8b dd 6f 3f
       0.8416904 1.1434358 1.1097722 0.9369742
000020 c8 ca 7c 3f 6c 72 67 3f 7c f3 9d 3f 9d bd 6b 3f
       0.9874692 0.9040897 1.233993 0.920862
000030 e6 e0 2a 3f fb 25 9c 3f ac 97 bd 3f 9b 9a 64 3f
       0.6674942 1.2199091 1.4811912 0.8929841
000040 c8 6e 7d 3f 4a c6 90 3f 43 79 70 3f 7b d7 94 3f
       0.98997164 1.1310513 0.9393503 1.162826
000050 31 08 25 3f f0 fa 69 3f b9 83 8f 3f ce 6b ae 3f
       0.64465624 0.91398525 1.1212074 1.3626649
000060 9f 5f a3 3f 11 2a 88 3f 3e 8a 91 3f 7b 92 74 3f
       1.2763556 1.0637838 1.1370313 0.9553601
000070 fe cf 87 3f 82 05 8e 3f 71 d9 1b 3f 91 3d a4 3f
       1.0610349 1.1095431 0.60878664 1.2831289
000080 be 6b 7f 3f 9e ec ab 3f 54 6f 63 3f 5e d7 9f 3f
       0.99773777 1.3431585 0.8884175 1.24876
000090 d9 d8 7b 3f 58 b8 9f 3f bc 90 a2 3f 93 8d 94 3f
       0.9837776 1.2478132 1.270042 1.1605705
0000a0 22 36 78 3f 3c 8e 82 3f ff 2c 9b 3f 57 51 88 3f
       0.969576 1.0199656 1.2123107 1.0649823
0000b0 de 7f 69 3f 9c 56 9c 3f af 15 81 3f ec 08 80 3f
       0.91210735 1.2213931 1.0084742 1.0002723
0000c0 ad f1 88 3f 6d a5 9e 3f 64 71 50 3f d9 cc 86 3f
       1.0698754 1.2394234 0.8142302 1.0531265
0000d0 6e de 79 3f 19 9b 63 3f 93 4b 67 3f d1 29 66 3f
       0.97605026 0.88908535 0.9034969 0.89907557
0000e0 ca 15 a5 3f 9b c5 90 3f dd b2 95 3f 29 1e 90 3f
       1.2897274 1.1310304 1.169521 1.1259204
0000f0 dc 36 65 3f 0c 35 69 3f 7c c8 45 3f aa 65 98 3f
       0.89536834 0.9109657 0.7725904 1.1906025
000100 d6 ee 87 3f e5 2a 4f 3f 98 19 ab 3f 24 71 2c 3f
       1.0619762 0.80924827 1.3367186 0.6736014
000110 db 55 97 3f ed e6 9d 3f b1 e8 73 3f e0 13 59 3f
       1.1823076 1.2336098 0.95276934 0.8479595
000120 66 8a 7c 3f d7 94 77 3f 63 a3 a5 3f 6c f7 a9 3f
       0.9864868 0.96711487 1.2940487 1.3278632
000130 70 c6 a7 3f b1 0f 6d 3f d4 a1 8d 3f 7b b2 82 3f
       1.3107433 0.9260207 1.1065011 1.0210718
000140 8c 2f 87 3f 77 9e 78 3f ee c1 8b 3f 0c 29 6e 3f
       1.0561385 0.971168 1.0918558 0.9303138
000150 cc dd 84 3f fc f3 40 3f 8b 15 a6 3f 25 a0 84 3f
       1.0380187 0.7537229 1.2975324 1.0361372
000160 bd 9e 44 3f 04 70 89 3f c1 30 78 3f e2 95 54 3f
       0.76804715 1.073731 0.9694939 0.83041203
000170 db cb 62 3f 06 c9 86 3f a0 16 60 3f c6 60 80 3f
       0.8859231 1.0530097 0.87534523 1.0029533
000180 2e 80 71 3f a9 1c 95 3f 1c 43 3c 3f c2 1a 95 3f
       0.9433621 1.1649371 0.735399 1.1648791
000190 2f 76 95 3f ab 73 91 3f df b1 38 3f 7f 20 62 3f
       1.1676692 1.1363424 0.7214641 0.88330835
0001a0 53 1f 62 3f bb a4 96 3f 2a fd 85 3f 77 b2 87 3f
       0.88329047 1.1769022 1.0467885 1.0601338
0001b0 ef 05 96 3f 58 2d 84 3f 3c 79 84 3f 30 44 95 3f
       1.1720561 1.0326338 1.0349498 1.1661434
0001c0 81 95 9b 3f eb 87 66 3f 8c 4f 80 3f 4b 7d 89 3f
       1.2155 0.90051144 1.0024276 1.0741361
0001d0 14 22 8c 3f 9a 98 92 3f ea 0a aa 3f a7 d3 81 3f
       1.09479 1.145282 1.3284581 1.0142716
0001e0 1c e0 8e 3f a4 f5 75 3f 87 2c 7b 3f 3a 2f be 3f
       1.1162143 0.9607794 0.9811482 1.4858162
0001f0 63 2d 9b 3f fe c2 cd 3f 68 5b 6e 3f 09 61 90 3f
       1.2123226 1.6075132 0.93108225 1.1279613
000200 06 83 80 3f 80 e4 91 3f 52 e9 aa 3f 2a b1 99 3f
       1.0039985 1.1397858 1.3352454 1.2007191
000210 3c ec 79 3f 0e 7d 81 3f e5 0b b9 3f ba 18 98 3f
       0.9762609 1.0116289 1.4456755 1.1882546
000220 e7 af 87 3f aa 8d 80 3f cf c1 95 3f b6 5e 6a 3f
       1.0600556 1.0043232 1.1699771 0.9155077
000230 dc 52 a6 3f b8 25 80 3f aa 78 8a 3f f8 cf 64 3f
       1.2994037 1.0011511 1.0818074 0.89379835
000240 ab c4 75 3f b1 4c a1 3f 3e 08 8f 3f 1a 0c b5 3f
       0.96003217 1.2601529 1.117439 1.4144318
000250 87 be a9 3f 8b 12 89 3f 54 20 5a 3f 51 b6 8d 3f
       1.3261269 1.0708784 0.8520558 1.1071264
000260 ec 6b 52 3f 94 38 82 3f bd 6d 49 3f 40 1d 61 3f
       0.82195926 1.0173516 0.7868307 0.87935257
000270 74 2b 7d 3f a1 4a a4 3f 2e b2 d1 3f 40 08 42 3f
       0.9889443 1.2835275 1.6382501 0.7579384
000280 a6 3f a3 3f 7f 7f b2 3f 7a 0a 90 3f 79 98 9b 3f
       1.2753799 1.3945159 1.1253197 1.2155906
000290 ef aa 95 3f 90 a2 55 3f e5 75 91 3f 4d 5e 8b 3f
       1.169279 0.83451176 1.1364104 1.0888153
0002a0 9e a1 91 3f 93 81 59 3f e7 ff 79 3f b2 ec 6b 3f
       1.1377447 0.8496334 0.976561 0.92158043
0002b0 b5 97 87 3f f8 64 92 3f b6 fe 9e 3f 12 80 9e 3f
       1.0593172 1.1437063 1.2421482 1.2382834
0002c0 a0 55 90 3f 5c 9c 99 3f 85 e1 6c 3f 1b ba ab 3f
       1.1276131 1.2000842 0.92531615 1.341617
0002d0 cd 16 9a 3f 19 d2 97 3f 3b ee 74 3f 88 4b 8a 3f
       1.2038208 1.1860992 0.9567601 1.08043
0002e0 3d d1 5f 3f 83 71 84 3f 93 06 9c 3f a9 1d 8e 3f
       0.8742865 1.0347141 1.2189506 1.1102802
0002f0 d9 92 96 3f 2e 6a 17 3f bf bf 73 3f 24 17 65 3f
       1.1763564 0.5914639 0.95214456 0.89488435
000300 a5 c0 a4 3f 3d a8 81 3f 53 a6 a4 3f 4f f6 9b 3f
       1.287129 1.0129467 1.2863258 1.2184542
000310 f4 47 3b 3f b6 fe 76 3f 02 47 48 3f d9 e4 c5 3f
       0.73156667 0.9648241 0.7823335 1.5460464
000320 30 5f 9b 3f 39 b5 7e 3f 0a 35 84 3f 94 48 6e 3f
       1.2138424 0.99495274 1.0328686 0.93079495
000330 0a 31 66 3f cf a3 5e 3f 56 87 87 3f 10 c3 83 3f
       0.8991858 0.869687 1.0588176 1.0293903
000340 4c 40 81 3f 7d ff 92 3f d1 db ae 3f c9 71 4b 3f
       1.0097747 1.1484219 1.3660833 0.794705
000350 43 6f 5a 3f be e1 2e 3f ce 21 7f 3f 71 fe 8e 3f
       0.8532602 0.68313205 0.99660957 1.1171399
000360 2d de 4c 3f 23 d8 68 3f f7 8b 5f 3f ca 45 86 3f
       0.80026513 0.909548 0.87322944 1.0490048
000370 37 e9 81 3f c1 05 6b 3f e7 b6 7a 3f 0c 0a 89 3f
       1.0149297 0.91805655 0.97935337 1.0706191
000380 7f 2e 8f 3f c1 29 a8 3f 5c cb 5a 3f d6 af 8f 3f
       1.1186064 1.3137742 0.8546655 1.1225536
000390 5f 21 a0 3f 6c 03 90 3f 21 86 88 3f fc 50 96 3f
       1.2510184 1.1251044 1.0665933 1.1743464
0003a0 c4 c7 65 3f ea a0 45 3f 21 20 c5 3f b5 b9 a1 3f
       0.89757943 0.7719866 1.540043 1.2634798
0003b0 7c dc a2 3f 0a 9e 3e 3f 03 78 8e 3f 56 eb 59 3f
       1.2723536 0.744599 1.1130375 0.8512472
0003c0 40 e9 68 3f 30 5b 8a 3f 30 07 84 3f ef e7 b9 3f
       0.9098091 1.0809078 1.0314693 1.4523906
0003d0 2b 41 43 3f e1 50 a4 3f c3 3f 9e 3f c2 4c 60 3f
       0.76271313 1.2837182 1.2363209 0.87617123
0003e0 5c 2f 7d 3f ca 53 90 3f 77 c9 9f 3f bf dd 99 3f
       0.9890039 1.127557 1.2483357 1.2020797
0003f0 b6 15 65 3f d2 9e 73 3f 7b 6c 84 3f c7 e8 99 3f
       0.89486253 0.95164216 1.0345606 1.2024163

model.1.bias f4 [256]
000000 1a f1 95 bf 4b f6 95 bf 93 e0 74 bf 1d 8e 4d bf
       -1.1714203 -1.1715788 -0.95655173 -0.8029497
000010 9e 37 be be af 78 b6 bf dc 46 77 bf 06 c4 87 bf
       -0.37151808 -1.425558 -0.965925 -1.0606697
000020 2d 54 82 bf f3 10 59 bf ac 79 5a bf d2 89 14 bf
       -1.0181938 -0.8479149 -0.85341907 -0.580228
000030 2a ae e0 be b3 7d cb bf a0 33 53 bf 79 5a 23 bf
       -0.43882877 -1.5897735 -0.8250065 -0.63809925
000040 5e b1 5c bf 50 c4 8a bf 11 20 81 bf 7b b2 c8 bf
       -0.8620814 -1.084116 -1.0087911 -1.5679468
000050 da e5 07 be 66 2c 28 bf 5d cf da bf 9a 03 ce bf
       -0.13271275 -0.65692747 -1.7094532 -1.6094849
000060 c9 9a 7b bf 73 e3 cc bf 48 ef 47 bf 5b 5a 38 bf
       -0.9828306 -1.6006912 -0.7809949 -0.7201287
000070 60 5e 64 bf a2 28 81 bf 98 29 be be 1e 03 76 bf
       -0.89206505 -1.0090525 -0.3714111 -0.96098506
000080 84 73 95 bf e1 13 b1 bf 07 09 19 bf 8d c9 c5 bf
       -1.1675878 -1.3834192 -0.597794 -1.5452133
000090 f4 5f 1b bf 21 a3 86 bf 55 be 66 bf ef ce b1 bf
       -0.6069329 -1.0518533 -0.90134174 -1.3891276
0000a0 93 a9 27 bf d2 13 06 bf 9c ae c1 bf 1c e1 cd bf
       -0.65493125 -0.52373993 -1.5131412 -1.6084323
0000b0 68 be 2f bf c1 ba a5 bf 5a 12 1d bf 3d 94 b1 bf
       -0.6864991 -1.2947618 -0.6135613 -1.3873364
0000c0 92 db 90 bf 97 16 05 bf 5e ce 19 bf 64 00 79 bf
       -1.1317008 -0.51987594 -0.60080516 -0.9726622
0000d0 a3 d5 89 bf 35 64 80 bf 03 14 83 bf 2a f6 76 bf
       -1.0768322 -1.0030581 -1.0240482 -0.96469367
0000e0 98 6b 4f bf a1 d1 b0 bf 64 1e 7e bf d2 cd c5 bf
       -0.8102355 -1.3813974 -0.9926512 -1.5453436
0000f0 54 ab 5e bf 0b d5 86 bf c2 e0 30 bf 44 3f 96 bf
       -0.86980176 -1.0533766 -0.69092953 -1.1738057
000100 10 8f 8d bf 4e b1 ef be 62 cf 62 bf 74 61 cb be
       -1.1059284 -0.4681496 -0.8859769 -0.39722788
000110 5d 6b 61 bf 71 fc 21 bf 1a 12 67 bf 1a 3a ad be
       -0.8805445 -0.6327582 -0.90261996 -0.3383339
000120 b0 c1 68 bf 0d 23 42 bf 34 ee 94 bf a0 e5 a3 bf
       -0.90920544 -0.75834733 -1.1635194 -1.2804451
000130 49 40 75 bf 9d d4 37 bf ac 9d 67 bf 71 cc 5f bf
       -0.95801216 -0.718088 -0.90474963 -0.8742133
000140 61 49 96 bf ae be 7d bf ff 0c a4 bf 1d e4 88 bf
       -1.1741143 -0.9911908 -1.2816466 -1.0694615
000150 56 37 52 bf d1 ed fb be 85 f5 81 bf 6e 5f 68 bf
       -0.82115686 -0.49204877 -1.0153052 -0.90770614
000160 b7 c4 35 bf 99 19 7a bf f9 0d 3e bf 51 34 69 bf
       -0.7100329 -0.9769531 -0.7424007 -0.91095454
000170 58 87 7c bf 49 3b ce bf 19 da 44 bf 4a 17 9e bf
       -0.9864402 -1.6111842 -0.7689529 -1.2350857
000180 64 1d 3c bf f1 8a 6b bf 5a 33 07 be f9 9c 27 bf
       -0.73482347 -0.9200888 -0.13203183 -0.65473896
000190 3c ea 45 bf 04 c0 50 bf 70 d0 57 bf 92 45 61 bf
       -0.7731054 -0.8154299 -0.84302425 -0.8799678
0001a0 72 50 59 bf bb 54 c6 bf 49 e9 b6 bf 1c ca 1e bf
       -0.84888375 -1.5494608 -1.4289943 -0.62027144
0001b0 2d 4f 81 bf 65 ae 58 bf 38 d8 c3 bf b9 b9 8a bf
       -1.0102288 -0.84641105 -1.530036 -1.0837928
0001c0 ed 3e 80 bf db 12 0d bf 75 21 66 bf 5d 86 9c bf
       -1.0019203 -0.55106896 -0.898948 -1.2228504
0001d0 fd 12 a9 bf 9d a4 7b bf db 42 ae bf 28 d2 93 bf
       -1.320892 -0.98298055 -1.3614153 -1.154851
0001e0 40 d1 54 bf 82 b7 42 bf d2 9d 8f bf 99 5f 84 bf
       -0.8313179 -0.7606126 -1.1220038 -1.0341674
0001f0 24 42 a3 bf 3a 26 7e bf 8c 88 80 bf f8 2f 87 bf
       -1.275456 -0.9927708 -1.0041671 -1.0561514
000200 af be 16 bf 35 d2 a5 bf 0b eb 83 bf 16 54 eb be
       -0.5888471 -1.2954775 -1.0306104 -0.4596259
000210 2c 37 49 bf 96 5b 72 bf 3e e2 33 bf 2d ea 99 bf
       -0.7859981 -0.94671 -0.70267093 -1.202459
000220 4f 15 62 bf 67 8d 54 bf ea 5f 5d bf 75 36 42 bf
       -0.88313764 -0.8302826 -0.8647448 -0.75864345
000230 e4 05 70 bf 54 54 76 bf 2e c1 0c bf 83 ca 5c bf
       -0.9375899 -0.96222425 -0.5498227 -0.8624651
000240 21 be 69 bf a5 66 ff be 0e 5d 67 bf 91 a2 b4 bf
       -0.9130574 -0.49883 -0.90376365 -1.4112111
000250 30 ba 42 bf cd 1e 19 bf 56 02 0f bf 41 5d 5b bf
       -0.7606535 -0.59812623 -0.5586294 -0.8568917
000260 b1 e3 02 bf a0 ea 85 bf 62 1c 10 bf 7d e8 7a bf
       -0.5112868 -1.0462227 -0.5629331 -0.98011
000270 a0 76 79 bf 16 51 86 bf a2 b5 ad bf 8e 41 0e bf
       -0.9744663 -1.0493495 -1.3571055 -0.5556878
000280 b7 9d ae bf 64 20 42 bf 2f c1 80 bf 57 b4 74 bf
       -1.3641881 -0.75830674 -1.0058955 -0.95587677
000290 13 f5 16 bf 08 e7 df be 4b 8a 98 bf c0 dd 9b bf
       -0.58967704 -0.4373095 -1.1917204 -1.2177048
0002a0 27 94 82 bf 01 1d 1f bf 8c d3 8c bf b9 da 82 bf
       -1.0201463 -0.6215363 -1.1002059 -1.0222999
0002b0 1f 2d b0 bf 8e d1 34 bf dd e2 67 bf 58 7a ab bf
       -1.376377 -0.70632255 -0.9058054 -1.3396711
0002c0 aa 95 43 bf 86 34 81 bf 70 73 14 bf 8c 9a ba bf
       -0.76400244 -1.0094154 -0.57988644 -1.4578414
0002d0 c0 26 a1 bf 12 56 89 bf db 97 3b bf 2d db ab bf
       -1.258995 -1.0729392 -0.7327859 -1.3426262
0002e0 a4 43 d5 be a0 35 93 bf 7f 30 5b bf fe 44 48 bf
       -0.41653168 -1.150074 -0.85620874 -0.78230274
0002f0 ac 12 90 bf 95 20 58 bd 45 94 15 bf fa 27 15 bf
       -1.1255698 -0.052765448 -0.58429366 -0.58264124
000300 71 1c 00 bf 18 d8 64 bf 63 a1 b1 bf 18 6f 39 bf
       -0.500434 -0.8939223 -1.3877376 -0.7243514
000310 94 66 e3 be ca 0c 44 bf c4 30 42 bf 1b 09 e4 bf
       -0.44414198 -0.76582015 -0.7585566 -1.7815279
000320 c4 f4 3b bf be 14 72 bf 23 86 92 bf 24 a9 57 bf
       -0.7342036 -0.945629 -1.1447185 -0.84242463
000330 4c 8c 5a bf 86 5e 11 bf 31 9e 7e bf 31 ab 65 bf
       -0.85370326 -0.56784856 -0.9946013 -0.8971434
000340 f4 5d b1 be 77 d8 9f bf c6 5e 60 bf a3 97 ed be
       -0.34641993 -1.2487935 -0.8764461 -0.46404752
000350 12 10 05 bf 41 c7 4d bf ef 80 d3 be 1a 6a b9 bf
       -0.51977646 -0.8038216 -0.41309306 -1.4485505
000360 8e d5 1f bf 1a af 7a bf 0c 5b c7 be 89 98 7b bf
       -0.62435234 -0.97923434 -0.3893665 -0.98279625
000370 00 a5 40 bf 35 7d 46 bf 8d f0 6c bf f2 c1 11 bf
       -0.7525177 -0.775348 -0.9255455 -0.5693656
000380 54 b8 96 bf e4 73 86 bf 31 4c fd be 6b e6 cb bf
       -1.1775002 -1.0504117 -0.49472192 -1.5929693
000390 df fa d0 bf 98 ef 86 bf 10 4e a5 bf 8d 19 80 bf
       -1.632656 -1.0541868 -1.2914448 -1.0007797
0003a0 52 6b 5f bf b3 bb 0f bf 11 ec 73 bf a2 6b 47 bf
       -0.8727313 -0.5614578 -0.95282084 -0.7789861
0003b0 8f 80 6d bf d1 aa 21 bf 9a 4e 33 bf d9 a4 d4 be
       -0.9277429 -0.6315127 -0.7004181 -0.4153202
0003c0 c8 d4 0a bf d0 5e 6d bf e4 58 6c bf 35 9f 5f bf
       -0.5423093 -0.927228 -0.92323136 -0.87352306
0003d0 4c fa 39 bf cc 29 d2 bf d5 f5 a5 bf 53 fd f0 be
       -0.7264755 -1.6419005 -1.2965647 -0.4706827
0003e0 85 fe 62 bf 81 09 51 bf 71 73 c0 bf e6 50 a2 bf
       -0.88669616 -0.81655127 -1.503523 -1.2680938
0003f0 27 c3 35 bf f0 a0 3f bf 35 88 b0 bf f4 a9 9e bf
       -0.71000904 -0.74854946 -1.3791567 -1.2395616

model.1.running_mean f4 [256]
000000 ea 2a a4 3f 27 4c 2a bf ed b8 15 bf 92 a4 7e c0
       1.2825596 -0.6652245 -0.584853 -3.9787946
000010 4a ac 25 3f ab 70 b3 c0 c1 14 a1 c0 aa 4f 2d 40
       0.6471602 -5.6075034 -5.0337834 2.7079873
000020 c4 54 81 c0 00 02 e2 bf fb af 30 c1 45 10 73 3f
       -4.0415974 -1.765686 -11.042964 0.949467
000030 09 42 c5 be 86 6c 8c c0 57 15 5a c1 8a bc ce bf
       -0.38526943 -4.3882475 -13.63021 -1.6151288
000040 1e 09 02 c0 5c db 3d c0 11 8a 94 bf 79 14 e5 be
       -2.0318065 -2.9665136 -1.1604635 -0.44742182
000050 65 da 49 3f 62 51 f7 bf 5e ef 47 3e 2d 6f 3b bf
       0.7884887 -1.9321711 0.19524905 -0.73216516
000060 1c 8e 0f 40 6a 10 9e bf 94 93 b9 c0 58 c6 80 bf
       2.2430487 -1.2348759 -5.799265 -1.006053
000070 7e 60 b8 c0 6d d2 45 c0 4b 29 3d 3f 22 d8 11 c0
       -5.761779 -3.0909684 0.73891133 -2.2788167
000080 2c c3 e2 be 69 fc 98 c0 15 a5 0a c0 a7 c0 b8 c0
       -0.4428953 -4.780812 -2.1663258 -5.773517
000090 e4 76 b3 bf 08 99 e0 bf 0c c2 d9 c0 71 64 12 c0
       -1.4020658 -1.7546701 -6.8049374 -2.2873805
0000a0 9d 0c 10 c0 b3 55 3e 3f 7f 1d 5b c0 ce 61 56 bf
       -2.2507699 0.74349517 -3.4236753 -0.8374299
0000b0 3e c5 98 3f 32 4f 44 c0 52 cf e7 bf c9 5d 35 40
       1.1935194 -3.0673337 -1.8110144 2.8338492
0000c0 25 4f dd bf cc 2c b4 c0 aa 89 38 3f 01 32 2a c0
       -1.7289778 -5.6304684 0.7208506 -2.659302
0000d0 44 27 38 c0 bb 62 4d c0 fc c9 00 3d 8e 3b fb bf
       -2.8773966 -3.209151 0.031442627 -1.962755
0000e0 c4 53 be c0 4a d8 e8 3f 70 72 cc c0 30 bb df bf
       -5.9477253 1.8191006 -6.3889694 -1.7479
0000f0 44 c2 47 40 8b dc 3f bf 64 39 31 c0 e3 77 ae c0
       3.121232 -0.74945897 -2.7691278 -5.4521346
000100 1c 49 82 c0 04 53 17 3f 4c d6 0a c1 c8 0f ee 3f
       -4.0714245 0.59111047 -8.677319 1.8598566
000110 d2 99 28 c0 21 50 0d c0 ce fc 9a bf 83 cd 8e bf
       -2.6343884 -2.2080157 -1.21084 -1.1156467
000120 6b 2e 90 3e 2c af c5 c0 85 b9 e6 bf 46 b3 e5 c0
       0.28160414 -6.1776333 -1.8025366 -7.178134
000130 c2 68 a1 c0 49 c2 1e c0 ea 99 1e 3f 6c c3 dd bf
       -5.044038 -2.4806082 0.61953604 -1.7325263
000140 33 1b 76 bf 3d df 61 c0 5e da 85 3f 34 e2 8f c0
       -0.9613525 -3.5292504 1.0457265 -4.4963627
000150 f2 f3 29 40 b2 1e d8 bf 27 75 97 c0 76 af 0e 3f
       2.6555142 -1.6884367 -4.733051 0.5573648
000160 1d e6 1c 3f 9a d9 9a 3f b2 64 3e c0 9f 31 98 be
       0.61288625 1.2097657 -2.974896 -0.29725358
000170 a7 9a 43 bf 97 46 20 3e a6 0c e9 bf 37 7d 50 c0
       -0.76407856 0.15651928 -1.8206985 -3.2576425
000180 a7 71 c5 bf 1e 35 3e c0 3e 0a 6c 40 a3 0b 53 c0
       -1.5425309 -2.971992 3.6881251 -3.2975852
000190 2f a3 5f c0 58 c0 9f c0 b4 92 62 3e 2a ec 8b c0
       -3.494335 -4.9922295 0.22126275 -4.3725786
0001a0 bb 52 55 3e 91 25 b7 bf c2 71 bf be b4 c4 41 bf
       0.2083234 -1.4308339 -0.37391478 -0.7569077
0001b0 11 a7 ca bf 27 70 08 c0 d3 7b 1f bf 21 68 df 3e
       -1.5832235 -2.1318452 -0.62298316 0.43634132
0001c0 44 b6 57 c0 d8 f7 aa 3f 82 f6 12 c0 7e 39 39 c0
       -3.3704996 1.3356886 -2.2962956 -2.894134
0001d0 c2 1d 85 3f b0 34 ca c0 92 e3 51 c0 12 a4 2c c0
       1.0399706 -6.3189316 -3.2795148 -2.697514
0001e0 ee 83 6c c0 9f 30 03 bf 2e c1 ff 3f 66 1d 12 c1
       -3.6955523 -0.51246065 1.9980829 -9.132177
0001f0 30 f7 15 c0 d2 6d 1d c1 b1 24 9f bf a9 22 93 c0
       -2.3432121 -9.839312 -1.2433072 -4.597981
000200 87 6e 00 c0 b4 bd 6f be 97 f8 54 c0 1f 7a c3 c0
       -2.006746 -0.2341221 -3.3276727 -6.1086574
000210 97 fd a5 c0 b5 c7 15 3f 06 b4 e5 c0 93 96 b6 bf
       -5.187206 0.58507854 -7.1782255 -1.4264702
000220 65 48 77 be ce bf d3 bf 9a eb 91 c0 22 6d 66 c0
       -0.2414871 -1.6542909 -4.56001 -3.600411
000230 c4 44 13 c1 39 d9 a1 bf a8 88 05 c1 b9 ab 39 bf
       -9.2042885 -1.2644416 -8.345863 -0.7252765
000240 a4 81 bb 3f 19 a3 42 c1 5f 46 6b c0 4e a1 f8 c0
       1.4648938 -12.164819 -3.67617 -7.7696905
000250 1f 76 2e c1 f2 58 77 c0 a6 34 87 bf d8 76 91 c0
       -10.903838 -3.8648038 -1.0562942 -4.5457573
000260 ec b7 2d 3f 87 2d 5d bf d6 99 b9 bf 1b b6 42 c0
       0.6785877 -0.86397594 -1.4500072 -3.0423648
000270 d8 23 be bf 81 15 9f c0 c7 c4 2e c1 5d aa 6e be
       -1.4854689 -4.971375 -10.923041 -0.23307176
000280 7a 82 a4 c0 43 5c e1 c0 fa f5 7c c0 df 45 6b c0
       -5.1409273 -7.0425124 -3.9525132 -3.6761396
000290 c4 23 7e c0 10 bb ae c0 34 57 e5 be aa 4d a9 bf
       -3.970933 -5.460335 -0.44793093 -1.3226826
0002a0 e3 f1 ad c0 41 bc 19 c0 be 9c 2f c0 02 41 b6 3f
       -5.435777 -2.402115 -2.7439418 1.4238589
0002b0 b5 b7 97 bf c8 d6 4a c0 e9 9d fc bf 22 48 b9 c0
       -1.1852938 -3.1693592 -1.973569 -5.7900553
0002c0 33 ae 73 c0 b1 99 89 c0 58 a0 e0 3f c7 94 c0 c0
       -3.8075073 -4.300011 1.7548933 -6.0181613
0002d0 20 79 28 be c6 00 21 c0 2f d3 0a c0 37 f7 28 40
       -0.16452456 -2.5156722 -2.1691396 2.6400888
0002e0 f8 9f e5 bf 40 63 fc bf f3 0a d2 c0 45 57 9a bf
       -1.7939444 -1.9717789 -6.5638366 -1.2057883
0002f0 e3 d8 7b c0 c8 8f 70 40 f4 e4 9b c0 3e b3 01 c0
       -3.9351127 3.7587757 -4.8716984 -2.026565
000300 54 84 77 c1 7b ec a1 bf 8e eb d7 c0 9e dc dc bf
       -15.469807 -1.2650293 -6.747504 -1.7254827
000310 58 f2 6f 3f bb de 13 c0 aa 38 0b bf 81 1b ad bf
       0.9372916 -2.3104694 -0.5438334 -1.3524019
000320 96 47 5f c0 64 d7 1b c0 4e 1d 32 be 6d 37 09 c0
       -3.4887443 -2.4350214 -0.17393991 -2.144008
000330 92 eb 95 be de 33 15 40 47 a9 97 c0 b2 b8 88 bf
       -0.29281288 2.3312907 -4.7394137 -1.0681365
000340 7f 2c 81 c0 70 56 75 bf 8a e0 0b c1 c8 04 01 40
       -4.0366817 -0.9583502 -8.742319 2.0159168
000350 64 c8 7b c0 81 04 30 c0 21 ac 8b c0 69 60 66 c0
       -3.9341059 -2.750275 -4.364762 -3.5996344
000360 02 0d 9a c0 e8 56 30 c0 a9 4b 57 3e fc f9 53 c0
       -4.814088 -2.7553043 0.21024956 -3.3121328
000370 70 c7 f7 bf 33 aa 55 bf a5 62 50 bf d9 d7 f2 bf
       -1.9357738 -0.8346283 -0.8140052 -1.8972121
000380 f9 0e 11 c0 80 14 82 40 6c cd 48 bf fd 34 22 3f
       -2.2665389 4.0650024 -0.7843845 0.63362104
000390 76 77 cc 3e 29 1f 70 c0 39 b7 04 bf a7 9a 1b bf
       0.3993489 -3.7519019 -0.51842076 -0.60782856
0003a0 30 0f fb 3f eb 68 de bf ae 20 24 c1 6c b6 70 c0
       1.961401 -1.7375768 -10.257978 -3.7611341
0003b0 bc 11 27 c0 9d da 96 bf 41 3a b8 c0 26 22 2f bf
       -2.6104574 -1.1785465 -5.757111 -0.6841148
0003c0 bf d5 1d c0 66 b2 12 c0 f0 77 a3 bf 33 a2 2b c1
       -2.466171 -2.2921386 -1.2770977 -10.727099
0003d0 6b 99 23 3f 8c f5 8c c0 a0 2f 54 c0 47 96 18 bf
       0.6390597 -4.404974 -3.3154068 -0.59604305
0003e0 00 26 c7 bf b7 82 32 c0 42 dd a8 bf 19 96 a7 bf
       -1.5558472 -2.7892282 -1.3192523 -1.3092681
0003f0 43 19 19 c0 3f 4d 3e c0 af 53 79 bf 55 7d eb 3f
       -2.3921669 -2.9734647 -0.97393316 1.8397623

model.1.running_var f4 [256]
000000 97 f5 6f 42 d6 32 0a 42 83 47 e5 41 ad 30 2c 43
       59.989834 34.549644 28.659918 172.19014
000010 65 72 b3 42 8a 6a c2 42 64 30 95 42 ab 02 4a 42
       89.72343 97.208084 74.59451 50.502605
000020 48 f0 94 42 48 19 8f 42 3d 18 8d 43 fb 07 57 42
       74.4693 71.54938 282.18936 53.757793
000030 1a 01 da 42 48 81 97 42 31 ed 2b 44 0e ac 40 42
       109.00215 75.7525 687.7061 48.168022
000040 69 89 4a 42 fb 0f 98 42 9b bb c8 41 60 d0 6d 42
       50.63419 76.03121 25.091604 59.45349
000050 73 51 df 42 7c 04 c8 41 62 51 1d 42 1a 47 55 42
       111.65908 25.00219 39.329475 53.319435
000060 44 04 cb 42 dc 4b f0 41 fd 63 c5 42 90 70 43 42
       101.50833 30.03704 98.69529 48.859924
000070 6a 94 f5 42 55 dd 65 42 c4 f2 83 42 6f 39 d8 42
       122.78987 57.466145 65.97415 108.112175
000080 f7 20 4c 42 2c d6 95 42 e4 bf 0f 42 6a 32 a7 42
       51.032192 74.918304 35.937393 83.598465
000090 8f 2b 62 42 02 e9 54 42 e1 27 ec 42 17 04 31 42
       56.542538 53.227547 118.07789 44.253994
0000a0 5b f5 8a 42 e8 63 f8 42 de b0 d8 42 c5 8d 9b 42
       69.47921 124.19513 108.34544 77.77689
0000b0 9b 0e 05 43 5e b3 14 43 ea 33 c2 42 df 26 64 42
       133.05705 148.70065 97.101395 57.03796
0000c0 71 06 16 42 f0 32 25 43 f6 ea db 42 fa c4 99 42
       37.50629 165.19897 109.95891 76.88472
0000d0 94 88 82 42 a3 58 80 42 86 fa a3 41 68 79 3d 42
       65.266754 64.17312 20.497326 47.36856
0000e0 d9 a4 1e 43 cf a9 80 42 76 cd d4 42 30 7a c6 41
       158.64394 64.33166 106.40129 24.809662
0000f0 f2 6c 5a 42 ee dd a5 42 b3 2a 42 42 52 17 92 42
       54.60639 82.93346 48.5417 73.04555
000100 40 f5 12 43 0d e6 05 42 6d c1 af 42 e0 72 15 42
       146.95801 33.47466 87.877785 37.362183
000110 88 e5 16 42 7b 5d 87 43 89 37 c4 41 1b 0e c4 42
       37.72415 270.73032 24.527117 98.02755
000120 f2 f7 52 42 ee 31 9d 42 f1 9e 12 43 46 e1 52 43
       52.742134 78.59752 146.62086 210.87997
000130 bb 05 ea 42 97 19 4a 42 09 b6 a4 42 06 29 fb 41
       117.01119 50.52499 82.35554 31.395031
000140 1c b3 83 42 96 a7 8e 42 2c df 92 42 6c ea 31 42
       65.84982 71.32732 73.43588 44.478928
000150 76 7a 45 42 80 d8 3a 42 eb d5 0b 43 9f fb e8 41
       49.36959 46.711426 139.83562 29.122862
000160 e2 87 0c 42 d7 ea 4b 42 05 74 96 42 11 52 17 42
       35.132698 50.979336 75.2266 37.830143
000170 af c2 14 42 34 1d 30 43 ce b9 3b 42 60 0c 90 42
       37.19012 176.11407 46.93145 72.02417
000180 f5 51 81 42 c3 d9 54 42 7c 47 6b 42 ea fa 41 43
       64.66007 53.212658 58.81981 193.98013
000190 68 c2 22 43 64 31 99 42 ec 97 82 42 4e b6 55 42
       162.7594 76.596466 65.29672 53.428032
0001a0 30 38 f9 41 26 3d b5 42 71 fc 0a 42 fd 26 88 42
       31.152435 90.61943 34.746525 68.07615
0001b0 50 66 6d 42 8a f8 15 42 cd 8f ba 41 1b 4e a4 42
       59.349915 37.492714 23.320215 82.15255
0001c0 98 b4 64 42 4a f2 2e 42 7b 4d 82 42 63 a7 79 42
       57.17636 43.73661 65.15133 62.413464
0001d0 ce 35 49 42 7f 06 aa 42 78 8e 81 42 ee 12 58 42
       50.302544 85.01269 64.77826 54.018486
0001e0 e3 2e 0d 43 a7 e3 98 42 6d e1 50 42 c7 8b 87 43
       141.18315 76.44463 52.220142 271.092
0001f0 e6 52 8c 42 bb 0f 75 43 ea 9c 03 42 a6 68 71 42
       70.16191 245.06145 32.903236 60.352196
000200 bf 66 4c 42 57 98 ed 42 1d 9b 10 43 68 36 30 43
       51.100338 118.79754 144.60591 176.21252
000210 f2 77 89 42 4e 3b 9f 42 a2 c3 ac 43 07 19 83 42
       68.73427 79.61583 345.52838 65.54888
000220 12 e0 ad 42 c4 6a bc 42 87 60 ad 42 a9 05 3d 42
       86.93764 94.20853 86.68853 47.255527
000230 fb 0d 27 43 aa 65 32 42 49 b9 5a 43 e5 8c 2d 42
       167.05461 44.59928 218.72377 43.387592
000240 9c c5 79 42 f0 50 6a 43 22 e7 66 42 e8 ea 13 43
       62.442978 234.31616 57.725716 147.9176
000250 2f 50 42 43 83 e3 b5 42 7f f5 02 42 cc 54 a8 42
       194.31322 90.94436 32.739742 84.16562
000260 c1 9a 9d 42 25 c5 dc 41 83 42 56 42 8e ac 28 42
       78.80225 27.596262 53.564953 42.16851
000270 f3 b7 53 42 8d 2c d3 42 49 0b 0b 44 5a 61 bd 42
       52.929638 105.58701 556.17633 94.69014
000280 cb 78 3c 42 27 e5 4f 43 bb 5f a7 42 8e 26 8c 42
       47.11796 207.89513 83.68697 70.0753
000290 68 c3 a9 42 39 55 c5 42 59 22 10 42 d5 bf 61 42
       84.88165 98.66645 36.033543 56.437336
0002a0 cc 04 48 43 56 cd 71 42 e4 63 ae 42 17 63 8f 42
       200.01874 60.450523 87.1951 71.693535
0002b0 d2 6d 96 41 38 05 bd 42 f0 5d cb 42 d5 50 9c 42
       18.803623 94.51019 101.68347 78.157875
0002c0 2b 30 bb 42 c1 9e bc 42 2d 6a c6 42 ce 9b 0f 43
       93.59408 94.31007 99.207375 143.60861
0002d0 40 37 62 42 f2 ef e9 42 d7 77 34 42 1e d0 6f 42
       56.553955 116.96864 45.11703 59.95324
0002e0 73 1a 14 42 51 48 ec 41 a7 23 5d 43 18 2c fa 42
       37.02583 29.53531 221.13927 125.08612
0002f0 89 26 aa 42 e2 bb 6a 42 1a e5 e3 42 78 72 42 42
       85.075264 58.68348 113.947464 48.611786
000300 57 19 a6 43 96 5f 71 42 1c a2 fb 42 2c 5d 6f 42
       332.19797 60.343346 125.81662 59.84099
000310 73 e9 c9 42 bb 84 62 42 8e d1 37 42 2f 9a b3 42
       100.955956 56.62962 45.954643 89.80114
000320 9a cd 33 43 40 d8 99 42 bd 68 4d 42 66 6f 85 42
       179.80313 76.92236 51.352283 66.717575
000330 a7 67 23 42 08 24 d8 42 59 c7 9e 42 ed 42 63 42
       40.851223 108.07037 79.38935 56.815357
000340 79 62 c1 42 79 42 dc 42 4a a5 8f 43 70 6c 96 42
       96.69233 110.12983 287.29132 75.21179
000350 ec c1 c4 42 75 54 c9 41 fa 85 b9 42 e4 0e 86 42
       98.37875 25.166239 92.76167 67.02908
000360 76 bc 6d 42 85 d0 53 42 e5 33 15 42 3d fd 90 42
       59.434044 52.953632 37.30068 72.494606
000370 b9 a7 59 42 dd df 30 42 84 3d 98 42 b7 f9 bd 42
       54.41379 44.218616 76.12015 94.987724
000380 d7 d7 98 42 17 78 1c 43 66 26 a4 42 f0 74 ca 42
       76.42156 156.4691 82.075 101.22839
000390 43 7f 47 42 31 1b a5 42 69 61 e8 42 b5 77 33 42
       49.87428 82.55311 116.190254 44.8669
0003a0 ca 6d cd 42 52 a6 12 43 3b b3 54 43 c1 b2 0a 43
       102.71443 146.64969 212.70012 138.69826
0003b0 e7 c2 64 42 2b 09 2a 42 4a 07 09 43 e7 e1 c3 42
       57.190334 42.508953 137.02847 97.941216
0003c0 bb 52 cd 42 97 39 0f 42 62 c6 98 41 f5 67 95 43
       102.66158 35.80624 19.096867 298.81216
0003d0 78 69 a9 42 57 16 cb 42 62 0b 87 42 6d f3 03 42
       84.70599 101.54363 67.52223 32.98772
0003e0 4f 89 0e 42 58 c1 d1 42 87 28 eb 42 3f 54 b3 42
       35.63409 104.877625 117.579155 89.66454
0003f0 82 cf 3e 42 fb a9 09 42 a5 49 3c 42 07 36 b9 42
       47.702644 34.415997 47.07192 92.60552

model.4.weight f4 [128, 256]
000000 13 0a 8c bf 6a 88 9e 3f 89 92 c4 3d 43 2d 2a c0
       -1.0940574 1.238538 0.09598262 -2.6590126
000010 d8 5e 03 c0 96 a7 b8 bd 15 e6 2c bf ff 47 db be
       -2.0526638 -0.090163395 -0.6753858 -0.42828366
000020 0e 07 4c 3f 23 5e 4d 3f 60 2e 6b bf 45 b0 a7 3d
       0.79698265 0.80221766 -0.9186764 0.081879176
000030 59 07 a1 3f 81 28 fc bf ea 6d 00 3f 86 e6 3c 3e
       1.2580367 -1.9699861 0.50167716 0.18447313
000040 b8 d9 15 3f 74 b2 b5 bf c6 e4 d4 be c5 5f 91 3f
       0.5853534 -1.4195085 -0.4158079 1.1357352
000050 36 69 ba be 88 2e 41 be 70 94 39 3e 23 f0 8c bf
       -0.36408395 -0.18865407 0.1812303 -1.1010784
000060 06 41 39 bf 45 10 60 3f b6 d1 90 bf d6 cf 1e 3f
       -0.7236484 0.87524825 -1.1313999 0.6203588
000070 d1 4e 5b bf 1a bb 61 3f 38 f8 c7 be ca 50 70 3f
       -0.8566714 0.8817612 -0.39056563 0.93873274
000080 1f be cd be dc 5a 47 bf 6c 88 36 bf 8b 65 a3 bf
       -0.40184113 -0.77873015 -0.71301913 -1.2765363
000090 19 27 fc 3e 34 3f f3 bd d6 74 34 3e 1c a8 19 be
       0.4924858 -0.118772894 0.17622694 -0.15005535
0000a0 f7 d3 4f 3f 9a 27 f7 3e e6 99 b6 bf 89 61 e1 be
       0.8118281 0.482724 -1.4265716 -0.44019726
0000b0 04 dd fe bf 8b d2 20 bf 0b ea 22 3f 90 46 80 3f
       -1.9911199 -0.62821263 0.6363837 1.0021534
0000c0 ad a8 ce 3e f1 e0 82 3e d7 b3 b4 bf a3 6c 14 3b
       0.40363064 0.25562242 -1.4117383 0.002264776
0000d0 d5 e8 d1 bf c4 fc 71 bf a6 26 c7 3b 58 8a 26 bf
       -1.639918 -0.94526315 0.0060776053 -0.65054846
0000e0 17 45 57 3e 09 f7 7d bf 75 a4 ff be 70 99 f6 3e
       0.2102245 -0.9920507 -0.49930158 0.4816394
0000f0 c7 60 57 be 31 33 b2 3b 37 4e f3 3e 91 65 6d bf
       -0.21033011 0.0054382314 0.4752061 -0.92733103
000100 38 3e ee be c7 b1 1a 3f 0c cc 0f bf 7b 3f 4f 3f
       -0.46531844 0.60427517 -0.56170726 0.8095624
000110 3d 0a 43 3f cb de 55 3f d9 f9 a9 bd 27 e5 75 bd
       0.761875 0.8354308 -0.08299608 -0.06003299
000120 c9 1f 87 be 87 91 d8 bf 85 4e 1d 3f a0 6d 06 bf
       -0.26391438 -1.6919411 0.61447936 -0.52511024
000130 0a 3d 31 3f ec c6 1c bf 85 01 8b bf 20 10 74 3f
       0.69233763 -0.6124103 -1.0859839 0.95337105
000140 b6 0a 00 bf bb 1b 4a 3f 27 f8 7e 3f e1 15 e5 bf
       -0.50016344 0.78948563 0.995974 -1.7897302
000150 b5 d3 3c 3f 8c 64 77 bc 7d de c9 bf f3 2a 74 3f
       0.7376054 -0.015099656 -1.5771023 0.95378035
000160 48 e9 0f c0 34 46 f0 3d 19 fc 9b 3e ed 7e 10 3f
       -2.2486134 0.1173214 0.30465773 0.56443673
000170 b4 cd 55 3e c9 38 5a bf e5 2c 6c bf fb c7 54 bd
       0.20879251 -0.852429 -0.92256004 -0.05194853
000180 f4 1d 9a be b5 77 0b 3f b2 42 bb 3e 25 e3 77 c0
       -0.30100977 0.54479533 0.36574322 -3.8732388
000190 a6 cb 32 be 50 1a e4 bd 2f d8 91 3e bf fa 01 3f
       -0.17460498 -0.11137831 0.28485247 0.50773233
0001a0 71 62 4d 3f 6a f6 0a bf e7 8c aa be 96 84 bd bf
       0.80228335 -0.5428225 -0.33310625 -1.4806087
0001b0 91 df 92 bf 14 7a 5b bf 25 90 b8 be 13 a6 ee bf
       -1.1474477 -0.8573315 -0.36047474 -1.8644432
0001c0 bb 36 0b bf ce 15 e7 3e 08 81 ab 3e 64 22 3b 3f
       -0.5438039 0.45133823 0.3349688 0.7309935
0001d0 fe d7 c6 bf 59 67 84 bf b6 a6 49 bf 7a af 4b 3f
       -1.5534666 -1.0344039 -0.78770006 0.7956463
0001e0 df 1f 6e bf 2b db 9a bf de 96 3d bd bf 93 0d 3f
       -0.9301738 -1.2098135 -0.046286456 0.5530357
0001f0 39 4e 9e bd fe 3e ac bc fd c9 ad 3f f7 d8 e2 be
       -0.077297635 -0.02102613 1.3577267 -0.44306156
000200 8d 65 b3 bf 8d 6b cb bf 46 ce 9b 3e 49 01 01 c0
       -1.4015366 -1.5892197 0.30430812 -2.0157034
000210 f8 7b ed be e0 90 df bf e7 79 05 3f b5 f4 1e 3e
       -0.46383643 -1.7466087 0.52139133 0.15523036
000220 a4 55 3d 3f ee b3 52 bf e2 e0 6e bf 4f bf b4 bf
       0.739588 -0.823058 -0.93311894 -1.4120883
000230 b3 07 1b 3f 57 e6 81 3e 7f 55 2c 3f cd 90 d3 be
       0.60558623 0.25371048 0.67317957 -0.41321412
000240 e8 3a a3 be 7e d9 1d 3c 3c b0 4a 3e de ac b0 3f
       -0.3188088 0.009634374 0.1979379 1.3802755
000250 f6 0e 83 3e 4b 4d 03 bf 36 70 67 bf d7 27 75 3c
       0.25597352 -0.51289815 -0.90405595 0.014963112
000260 01 6f e4 bd 30 d6 42 3f 15 37 93 bf 85 e2 52 bf
       -0.11153985 0.76108074 -1.1501185 -0.8237689
000270 05 c1 39 be ea 27 2b 3f a7 00 a4 3e f8 45 04 be
       -0.18140037 0.6685778 0.32031748 -0.12917316
000280 04 f6 b1 3d 53 bf e0 3e ee f8 2b 3f 25 1a c0 bf
       0.08689502 0.4389597 0.6717671 -1.5007979
000290 3f 9f 10 3f ad 35 f9 bf 1f 6d 95 3f b2 37 20 40
       0.5649299 -1.9469506 1.1673926 2.5033994
0002a0 7d 4d 99 bf f2 14 8e 3e b1 10 96 be fc 49 c4 be
       -1.1976773 0.27750355 -0.2930961 -0.38337696
0002b0 c5 a1 36 3f 41 65 ab 3d 4b 46 51 3e a3 ed a0 be
       0.7134059 0.08368922 0.20436971 -0.31431302
0002c0 bb 92 aa be d8 ff 89 bf aa 8f 1e bc 9f a1 1a be
       -0.3331507 -1.0781202 -0.009677807 -0.15100716
0002d0 5d 34 14 be b3 61 8c bf 10 0f 75 3e d2 47 02 bf
       -0.144731 -1.0967315 0.23931527 -0.5089084
0002e0 b8 8c cf be b8 5f f9 3a 0f d3 aa be a6 65 9e be
       -0.40537047 0.0019025719 -0.3336415 -0.30936927
0002f0 19 89 54 3e 9d 05 a5 3e 95 74 92 bf 28 7d 85 3e
       0.20755424 0.32230845 -1.1441828 0.2607205
000300 0a 42 8e 3e 5f ed 84 3e 76 1c 34 3e b3 47 34 bd
       0.2778476 0.2596235 0.17588982 -0.04401369
000310 4e 70 84 3e 93 9f 00 bd 69 2a 00 3f 16 5c 1b 3f
       0.25866932 -0.03140218 0.5006471 0.60687387
000320 c4 e4 1d be 7d a1 54 3f f0 f7 1a 3f af 3f 44 bf
       -0.15419298 0.8305891 0.6053457 -0.76659673
000330 ea d6 f8 bd 93 d4 4a 3f d6 04 10 be d6 a7 35 3f
       -0.121503666 0.7923061 -0.14064345 0.7095922
000340 73 af 98 bf ec 05 05 c0 00 3a 9d bf 53 6a fa bf
       -1.1928543 -2.0784864 -1.2283325 -1.9563698
000350 1b bc 80 bf 57 d8 45 3f f4 b5 41 bf 32 87 59 be
       -1.0057405 0.77283233 -0.75668263 -0.21242979
000360 98 f4 78 3e ff 87 97 3e 9c 99 da 3e ac 6e 8c be
       0.24312055 0.29595944 0.4269532 -0.27428186
000370 be 78 1d 3f cf 11 61 bf e2 70 f0 be 4e 42 8b bf
       0.6151236 -0.879178 -0.46961123 -1.087961
000380 d5 0b 86 bf f0 75 bf 3e 8b e1 09 c0 c1 65 61 bf
       -1.0472361 0.37394667 -2.154391 -0.8804589
000390 2f c5 53 bf 17 07 3a bf bb 00 15 be 15 01 ac be
       -0.82722753 -0.7266707 -0.1455106 -0.33594576
0003a0 04 a0 17 3f 80 ee 8c bf 5e 66 89 3e 87 1a bb 3e
       0.5922854 -1.1010284 0.26835912 0.36543676
0003b0 f3 d9 37 3f 62 04 5c 3f 96 92 06 c0 d4 4b 52 c0
       0.7181694 0.8594419 -2.102697 -3.2858782
0003c0 25 b0 05 c0 88 68 04 3f 40 28 2b 3f 88 47 34 3f
       -2.088876 0.51722 0.6685829 0.7042165
0003d0 1a 35 e6 3e 74 15 a9 3f 6d f9 37 be 0f 5b 14 3f
       0.44962388 1.3209672 -0.17966242 0.57951444
0003e0 e5 0f 02 bf f2 98 ef bf d9 10 5f 3e b3 dc b2 bf
       -0.50805503 -1.871855 0.2178377 -1.3973602
0003f0 56 b8 38 3f 71 5a cd be 3c 31 ee be c7 44 08 3f
       0.72156274 -0.40108064 -0.46521938 0.53229946
